…
2022-05-06 14:54:21 - distributed_c10d.py[line:187] - INFO: Added key: store_based_barrier_key:4 to store for rank: 0
2022-05-06 14:54:21 - distributed_c10d.py[line:187] - INFO: Added key: store_based_barrier_key:5 to store for rank: 0
2022-05-06 14:54:21 - distributed_c10d.py[line:187] - INFO: Added key: store_based_barrier_key:6 to store for rank: 0
2022-05-06 14:54:21 - distributed_c10d.py[line:187] - INFO: Added key: store_based_barrier_key:7 to store for rank: 0
2022-05-06 14:54:29 - train.py[line:119] - INFO: OFAModel(
  (encoder): TransformerEncoder(
    (dropout_module): FairseqDropout()
    (embed_tokens): Embedding(59457, 1024, padding_idx=1)
    (layernorm_embedding): FusedLayerNorm(torch.Size([1024]), eps=1e-05, elementwise_affine=True)
    (type_embedding): Embedding(2, 1024)
    (embed_images): ResNet(
      (conv1): Conv2d(3, 64, kernel_size=(7, 7), stride=(2, 2), padding=(3, 3), bias=False)
      (bn1): BatchNorm2d(64, eps=1e-05, momentum=0.1, affine=True, track_running_stats=True)
      (relu): ReLU(inplace=True)
      (maxpool): MaxPool2d(kernel_size=3, stride=2, padding=1, dilation=1, ceil_mode=False)
      (layer1): Sequential(
        (0): Bottleneck(
          (conv1): Conv2d(64, 64, kernel_size=(1, 1), stride=(1, 1), bias=False)
          (bn1): BatchNorm2d(64, eps=1e-05, momentum=0.1, affine=True, track_running_stats=True)
          (conv2): Conv2d(64, 64, kernel_size=(3, 3), stride=(1, 1), padding=(1, 1), bias=False)
          (bn2): BatchNorm2d(64, eps=1e-05, momentum=0.1, affine=True, track_running_stats=True)
          (conv3): Conv2d(64, 256, kernel_size=(1, 1), stride=(1, 1), bias=False)
          (bn3): BatchNorm2d(256, eps=1e-05, momentum=0.1, affine=True, track_running_stats=True)
          (relu): ReLU(inplace=True)
          (downsample): Sequential(
            (0): Conv2d(64, 256, kernel_size=(1, 1), stride=(1, 1), bias=False)
            (1): BatchNorm2d(256, eps=1e-05, momentum=0.1, affine=True, track_running_stats=True)
          )
          (drop_path): Identity()
        )
        (1): Bottleneck(
          (conv1): Conv2d(256, 64, kernel_size=(1, 1), stride=(1, 1), bias=False)
          (bn1): BatchNorm2d(64, eps=1e-05, momentum=0.1, affine=True, track_running_stats=True)
          (conv2): Conv2d(64, 64, kernel_size=(3, 3), stride=(1, 1), padding=(1, 1), bias=False)
          (bn2): BatchNorm2d(64, eps=1e-05, momentum=0.1, affine=True, track_running_stats=True)
          (conv3): Conv2d(64, 256, kernel_size=(1, 1), stride=(1, 1), bias=False)
          (bn3): BatchNorm2d(256, eps=1e-05, momentum=0.1, affine=True, track_running_stats=True)
          (relu): ReLU(inplace=True)
          (drop_path): Identity()
        )
        (2): Bottleneck(
          (conv1): Conv2d(256, 64, kernel_size=(1, 1), stride=(1, 1), bias=False)
          (bn1): BatchNorm2d(64, eps=1e-05, momentum=0.1, affine=True, track_running_stats=True)
          (conv2): Conv2d(64, 64, kernel_size=(3, 3), stride=(1, 1), padding=(1, 1), bias=False)
          (bn2): BatchNorm2d(64, eps=1e-05, momentum=0.1, affine=True, track_running_stats=True)
          (conv3): Conv2d(64, 256, kernel_size=(1, 1), stride=(1, 1), bias=False)
          (bn3): BatchNorm2d(256, eps=1e-05, momentum=0.1, affine=True, track_running_stats=True)
          (relu): ReLU(inplace=True)
          (drop_path): Identity()
        )
      )
      (layer2): Sequential(
        (0): Bottleneck(
          (conv1): Conv2d(256, 128, kernel_size=(1, 1), stride=(1, 1), bias=False)
          (bn1): BatchNorm2d(128, eps=1e-05, momentum=0.1, affine=True, track_running_stats=True)
          (conv2): Conv2d(128, 128, kernel_size=(3, 3), stride=(2, 2), padding=(1, 1), bias=False)
          (bn2): BatchNorm2d(128, eps=1e-05, momentum=0.1, affine=True, track_running_stats=True)
          (conv3): Conv2d(128, 512, kernel_size=(1, 1), stride=(1, 1), bias=False)
          (bn3): BatchNorm2d(512, eps=1e-05, momentum=0.1, affine=True, track_running_stats=True)
          (relu): ReLU(inplace=True)
          (downsample): Sequential(
            (0): Conv2d(256, 512, kernel_size=(1, 1), stride=(2, 2), bias=False)
            (1): BatchNorm2d(512, eps=1e-05, momentum=0.1, affine=True, track_running_stats=True)
          )
          (drop_path): Identity()
        )
        (1): Bottleneck(
          (conv1): Conv2d(512, 128, kernel_size=(1, 1), stride=(1, 1), bias=False)
          (bn1): BatchNorm2d(128, eps=1e-05, momentum=0.1, affine=True, track_running_stats=True)
          (conv2): Conv2d(128, 128, kernel_size=(3, 3), stride=(1, 1), padding=(1, 1), bias=False)
          (bn2): BatchNorm2d(128, eps=1e-05, momentum=0.1, affine=True, track_running_stats=True)
          (conv3): Conv2d(128, 512, kernel_size=(1, 1), stride=(1, 1), bias=False)
          (bn3): BatchNorm2d(512, eps=1e-05, momentum=0.1, affine=True, track_running_stats=True)
          (relu): ReLU(inplace=True)
          (drop_path): Identity()
        )
        (2): Bottleneck(
          (conv1): Conv2d(512, 128, kernel_size=(1, 1), stride=(1, 1), bias=False)
          (bn1): BatchNorm2d(128, eps=1e-05, momentum=0.1, affine=True, track_running_stats=True)
          (conv2): Conv2d(128, 128, kernel_size=(3, 3), stride=(1, 1), padding=(1, 1), bias=False)
          (bn2): BatchNorm2d(128, eps=1e-05, momentum=0.1, affine=True, track_running_stats=True)
          (conv3): Conv2d(128, 512, kernel_size=(1, 1), stride=(1, 1), bias=False)
          (bn3): BatchNorm2d(512, eps=1e-05, momentum=0.1, affine=True, track_running_stats=True)
          (relu): ReLU(inplace=True)
          (drop_path): Identity()
        )
        (3): Bottleneck(
          (conv1): Conv2d(512, 128, kernel_size=(1, 1), stride=(1, 1), bias=False)
          (bn1): BatchNorm2d(128, eps=1e-05, momentum=0.1, affine=True, track_running_stats=True)
          (conv2): Conv2d(128, 128, kernel_size=(3, 3), stride=(1, 1), padding=(1, 1), bias=False)
          (bn2): BatchNorm2d(128, eps=1e-05, momentum=0.1, affine=True, track_running_stats=True)
          (conv3): Conv2d(128, 512, kernel_size=(1, 1), stride=(1, 1), bias=False)
          (bn3): BatchNorm2d(512, eps=1e-05, momentum=0.1, affine=True, track_running_stats=True)
          (relu): ReLU(inplace=True)
          (drop_path): Identity()
        )
        (4): Bottleneck(
          (conv1): Conv2d(512, 128, kernel_size=(1, 1), stride=(1, 1), bias=False)
          (bn1): BatchNorm2d(128, eps=1e-05, momentum=0.1, affine=True, track_running_stats=True)
          (conv2): Conv2d(128, 128, kernel_size=(3, 3), stride=(1, 1), padding=(1, 1), bias=False)
          (bn2): BatchNorm2d(128, eps=1e-05, momentum=0.1, affine=True, track_running_stats=True)
          (conv3): Conv2d(128, 512, kernel_size=(1, 1), stride=(1, 1), bias=False)
          (bn3): BatchNorm2d(512, eps=1e-05, momentum=0.1, affine=True, track_running_stats=True)
          (relu): ReLU(inplace=True)
          (drop_path): Identity()
        )
        (5): Bottleneck(
          (conv1): Conv2d(512, 128, kernel_size=(1, 1), stride=(1, 1), bias=False)
          (bn1): BatchNorm2d(128, eps=1e-05, momentum=0.1, affine=True, track_running_stats=True)
          (conv2): Conv2d(128, 128, kernel_size=(3, 3), stride=(1, 1), padding=(1, 1), bias=False)
          (bn2): BatchNorm2d(128, eps=1e-05, momentum=0.1, affine=True, track_running_stats=True)
          (conv3): Conv2d(128, 512, kernel_size=(1, 1), stride=(1, 1), bias=False)
          (bn3): BatchNorm2d(512, eps=1e-05, momentum=0.1, affine=True, track_running_stats=True)
          (relu): ReLU(inplace=True)
          (drop_path): Identity()
        )
        (6): Bottleneck(
          (conv1): Conv2d(512, 128, kernel_size=(1, 1), stride=(1, 1), bias=False)
          (bn1): BatchNorm2d(128, eps=1e-05, momentum=0.1, affine=True, track_running_stats=True)
          (conv2): Conv2d(128, 128, kernel_size=(3, 3), stride=(1, 1), padding=(1, 1), bias=False)
          (bn2): BatchNorm2d(128, eps=1e-05, momentum=0.1, affine=True, track_running_stats=True)
          (conv3): Conv2d(128, 512, kernel_size=(1, 1), stride=(1, 1), bias=False)
          (bn3): BatchNorm2d(512, eps=1e-05, momentum=0.1, affine=True, track_running_stats=True)
          (relu): ReLU(inplace=True)
          (drop_path): Identity()
        )
        (7): Bottleneck(
          (conv1): Conv2d(512, 128, kernel_size=(1, 1), stride=(1, 1), bias=False)
          (bn1): BatchNorm2d(128, eps=1e-05, momentum=0.1, affine=True, track_running_stats=True)
          (conv2): Conv2d(128, 128, kernel_size=(3, 3), stride=(1, 1), padding=(1, 1), bias=False)
          (bn2): BatchNorm2d(128, eps=1e-05, momentum=0.1, affine=True, track_running_stats=True)
          (conv3): Conv2d(128, 512, kernel_size=(1, 1), stride=(1, 1), bias=False)
          (bn3): BatchNorm2d(512, eps=1e-05, momentum=0.1, affine=True, track_running_stats=True)
          (relu): ReLU(inplace=True)
          (drop_path): Identity()
        )
      )
      (layer3): Sequential(
        (0): Bottleneck(
          (conv1): Conv2d(512, 256, kernel_size=(1, 1), stride=(1, 1), bias=False)
          (bn1): BatchNorm2d(256, eps=1e-05, momentum=0.1, affine=True, track_running_stats=True)
          (conv2): Conv2d(256, 256, kernel_size=(3, 3), stride=(2, 2), padding=(1, 1), bias=False)
          (bn2): BatchNorm2d(256, eps=1e-05, momentum=0.1, affine=True, track_running_stats=True)
          (conv3): Conv2d(256, 1024, kernel_size=(1, 1), stride=(1, 1), bias=False)
          (bn3): BatchNorm2d(1024, eps=1e-05, momentum=0.1, affine=True, track_running_stats=True)
          (relu): ReLU(inplace=True)
          (downsample): Sequential(
            (0): Conv2d(512, 1024, kernel_size=(1, 1), stride=(2, 2), bias=False)
            (1): BatchNorm2d(1024, eps=1e-05, momentum=0.1, affine=True, track_running_stats=True)
          )
          (drop_path): Identity()
        )
        (1): Bottleneck(
          (conv1): Conv2d(1024, 256, kernel_size=(1, 1), stride=(1, 1), bias=False)
          (bn1): BatchNorm2d(256, eps=1e-05, momentum=0.1, affine=True, track_running_stats=True)
          (conv2): Conv2d(256, 256, kernel_size=(3, 3), stride=(1, 1), padding=(1, 1), bias=False)
          (bn2): BatchNorm2d(256, eps=1e-05, momentum=0.1, affine=True, track_running_stats=True)
          (conv3): Conv2d(256, 1024, kernel_size=(1, 1), stride=(1, 1), bias=False)
          (bn3): BatchNorm2d(1024, eps=1e-05, momentum=0.1, affine=True, track_running_stats=True)
          (relu): ReLU(inplace=True)
          (drop_path): Identity()
        )
        (2): Bottleneck(
          (conv1): Conv2d(1024, 256, kernel_size=(1, 1), stride=(1, 1), bias=False)
          (bn1): BatchNorm2d(256, eps=1e-05, momentum=0.1, affine=True, track_running_stats=True)
          (conv2): Conv2d(256, 256, kernel_size=(3, 3), stride=(1, 1), padding=(1, 1), bias=False)
          (bn2): BatchNorm2d(256, eps=1e-05, momentum=0.1, affine=True, track_running_stats=True)
          (conv3): Conv2d(256, 1024, kernel_size=(1, 1), stride=(1, 1), bias=False)
          (bn3): BatchNorm2d(1024, eps=1e-05, momentum=0.1, affine=True, track_running_stats=True)
          (relu): ReLU(inplace=True)
          (drop_path): Identity()
        )
        (3): Bottleneck(
          (conv1): Conv2d(1024, 256, kernel_size=(1, 1), stride=(1, 1), bias=False)
          (bn1): BatchNorm2d(256, eps=1e-05, momentum=0.1, affine=True, track_running_stats=True)
          (conv2): Conv2d(256, 256, kernel_size=(3, 3), stride=(1, 1), padding=(1, 1), bias=False)
          (bn2): BatchNorm2d(256, eps=1e-05, momentum=0.1, affine=True, track_running_stats=True)
          (conv3): Conv2d(256, 1024, kernel_size=(1, 1), stride=(1, 1), bias=False)
          (bn3): BatchNorm2d(1024, eps=1e-05, momentum=0.1, affine=True, track_running_stats=True)
          (relu): ReLU(inplace=True)
          (drop_path): Identity()
        )
        (4): Bottleneck(
          (conv1): Conv2d(1024, 256, kernel_size=(1, 1), stride=(1, 1), bias=False)
          (bn1): BatchNorm2d(256, eps=1e-05, momentum=0.1, affine=True, track_running_stats=True)
          (conv2): Conv2d(256, 256, kernel_size=(3, 3), stride=(1, 1), padding=(1, 1), bias=False)
          (bn2): BatchNorm2d(256, eps=1e-05, momentum=0.1, affine=True, track_running_stats=True)
          (conv3): Conv2d(256, 1024, kernel_size=(1, 1), stride=(1, 1), bias=False)
          (bn3): BatchNorm2d(1024, eps=1e-05, momentum=0.1, affine=True, track_running_stats=True)
          (relu): ReLU(inplace=True)
          (drop_path): Identity()
        )
        (5): Bottleneck(
          (conv1): Conv2d(1024, 256, kernel_size=(1, 1), stride=(1, 1), bias=False)
          (bn1): BatchNorm2d(256, eps=1e-05, momentum=0.1, affine=True, track_running_stats=True)
          (conv2): Conv2d(256, 256, kernel_size=(3, 3), stride=(1, 1), padding=(1, 1), bias=False)
          (bn2): BatchNorm2d(256, eps=1e-05, momentum=0.1, affine=True, track_running_stats=True)
          (conv3): Conv2d(256, 1024, kernel_size=(1, 1), stride=(1, 1), bias=False)
          (bn3): BatchNorm2d(1024, eps=1e-05, momentum=0.1, affine=True, track_running_stats=True)
          (relu): ReLU(inplace=True)
          (drop_path): Identity()
        )
        (6): Bottleneck(
          (conv1): Conv2d(1024, 256, kernel_size=(1, 1), stride=(1, 1), bias=False)
          (bn1): BatchNorm2d(256, eps=1e-05, momentum=0.1, affine=True, track_running_stats=True)
          (conv2): Conv2d(256, 256, kernel_size=(3, 3), stride=(1, 1), padding=(1, 1), bias=False)
          (bn2): BatchNorm2d(256, eps=1e-05, momentum=0.1, affine=True, track_running_stats=True)
          (conv3): Conv2d(256, 1024, kernel_size=(1, 1), stride=(1, 1), bias=False)
          (bn3): BatchNorm2d(1024, eps=1e-05, momentum=0.1, affine=True, track_running_stats=True)
          (relu): ReLU(inplace=True)
          (drop_path): Identity()
        )
        (7): Bottleneck(
          (conv1): Conv2d(1024, 256, kernel_size=(1, 1), stride=(1, 1), bias=False)
          (bn1): BatchNorm2d(256, eps=1e-05, momentum=0.1, affine=True, track_running_stats=True)
          (conv2): Conv2d(256, 256, kernel_size=(3, 3), stride=(1, 1), padding=(1, 1), bias=False)
          (bn2): BatchNorm2d(256, eps=1e-05, momentum=0.1, affine=True, track_running_stats=True)
          (conv3): Conv2d(256, 1024, kernel_size=(1, 1), stride=(1, 1), bias=False)
          (bn3): BatchNorm2d(1024, eps=1e-05, momentum=0.1, affine=True, track_running_stats=True)
          (relu): ReLU(inplace=True)
          (drop_path): Identity()
        )
        (8): Bottleneck(
          (conv1): Conv2d(1024, 256, kernel_size=(1, 1), stride=(1, 1), bias=False)
          (bn1): BatchNorm2d(256, eps=1e-05, momentum=0.1, affine=True, track_running_stats=True)
          (conv2): Conv2d(256, 256, kernel_size=(3, 3), stride=(1, 1), padding=(1, 1), bias=False)
          (bn2): BatchNorm2d(256, eps=1e-05, momentum=0.1, affine=True, track_running_stats=True)
          (conv3): Conv2d(256, 1024, kernel_size=(1, 1), stride=(1, 1), bias=False)
          (bn3): BatchNorm2d(1024, eps=1e-05, momentum=0.1, affine=True, track_running_stats=True)
          (relu): ReLU(inplace=True)
          (drop_path): Identity()
        )
        (9): Bottleneck(
          (conv1): Conv2d(1024, 256, kernel_size=(1, 1), stride=(1, 1), bias=False)
          (bn1): BatchNorm2d(256, eps=1e-05, momentum=0.1, affine=True, track_running_stats=True)
          (conv2): Conv2d(256, 256, kernel_size=(3, 3), stride=(1, 1), padding=(1, 1), bias=False)
          (bn2): BatchNorm2d(256, eps=1e-05, momentum=0.1, affine=True, track_running_stats=True)
          (conv3): Conv2d(256, 1024, kernel_size=(1, 1), stride=(1, 1), bias=False)
          (bn3): BatchNorm2d(1024, eps=1e-05, momentum=0.1, affine=True, track_running_stats=True)
          (relu): ReLU(inplace=True)
          (drop_path): Identity()
        )
        (10): Bottleneck(
          (conv1): Conv2d(1024, 256, kernel_size=(1, 1), stride=(1, 1), bias=False)
          (bn1): BatchNorm2d(256, eps=1e-05, momentum=0.1, affine=True, track_running_stats=True)
          (conv2): Conv2d(256, 256, kernel_size=(3, 3), stride=(1, 1), padding=(1, 1), bias=False)
          (bn2): BatchNorm2d(256, eps=1e-05, momentum=0.1, affine=True, track_running_stats=True)
          (conv3): Conv2d(256, 1024, kernel_size=(1, 1), stride=(1, 1), bias=False)
          (bn3): BatchNorm2d(1024, eps=1e-05, momentum=0.1, affine=True, track_running_stats=True)
          (relu): ReLU(inplace=True)
          (drop_path): Identity()
        )
        (11): Bottleneck(
          (conv1): Conv2d(1024, 256, kernel_size=(1, 1), stride=(1, 1), bias=False)
          (bn1): BatchNorm2d(256, eps=1e-05, momentum=0.1, affine=True, track_running_stats=True)
          (conv2): Conv2d(256, 256, kernel_size=(3, 3), stride=(1, 1), padding=(1, 1), bias=False)
          (bn2): BatchNorm2d(256, eps=1e-05, momentum=0.1, affine=True, track_running_stats=True)
          (conv3): Conv2d(256, 1024, kernel_size=(1, 1), stride=(1, 1), bias=False)
          (bn3): BatchNorm2d(1024, eps=1e-05, momentum=0.1, affine=True, track_running_stats=True)
          (relu): ReLU(inplace=True)
          (drop_path): Identity()
        )
        (12): Bottleneck(
          (conv1): Conv2d(1024, 256, kernel_size=(1, 1), stride=(1, 1), bias=False)
          (bn1): BatchNorm2d(256, eps=1e-05, momentum=0.1, affine=True, track_running_stats=True)
          (conv2): Conv2d(256, 256, kernel_size=(3, 3), stride=(1, 1), padding=(1, 1), bias=False)
          (bn2): BatchNorm2d(256, eps=1e-05, momentum=0.1, affine=True, track_running_stats=True)
          (conv3): Conv2d(256, 1024, kernel_size=(1, 1), stride=(1, 1), bias=False)
          (bn3): BatchNorm2d(1024, eps=1e-05, momentum=0.1, affine=True, track_running_stats=True)
          (relu): ReLU(inplace=True)
          (drop_path): Identity()
        )
        (13): Bottleneck(
          (conv1): Conv2d(1024, 256, kernel_size=(1, 1), stride=(1, 1), bias=False)
          (bn1): BatchNorm2d(256, eps=1e-05, momentum=0.1, affine=True, track_running_stats=True)
          (conv2): Conv2d(256, 256, kernel_size=(3, 3), stride=(1, 1), padding=(1, 1), bias=False)
          (bn2): BatchNorm2d(256, eps=1e-05, momentum=0.1, affine=True, track_running_stats=True)
          (conv3): Conv2d(256, 1024, kernel_size=(1, 1), stride=(1, 1), bias=False)
          (bn3): BatchNorm2d(1024, eps=1e-05, momentum=0.1, affine=True, track_running_stats=True)
          (relu): ReLU(inplace=True)
          (drop_path): Identity()
        )
        (14): Bottleneck(
          (conv1): Conv2d(1024, 256, kernel_size=(1, 1), stride=(1, 1), bias=False)
          (bn1): BatchNorm2d(256, eps=1e-05, momentum=0.1, affine=True, track_running_stats=True)
          (conv2): Conv2d(256, 256, kernel_size=(3, 3), stride=(1, 1), padding=(1, 1), bias=False)
          (bn2): BatchNorm2d(256, eps=1e-05, momentum=0.1, affine=True, track_running_stats=True)
          (conv3): Conv2d(256, 1024, kernel_size=(1, 1), stride=(1, 1), bias=False)
          (bn3): BatchNorm2d(1024, eps=1e-05, momentum=0.1, affine=True, track_running_stats=True)
          (relu): ReLU(inplace=True)
          (drop_path): Identity()
        )
        (15): Bottleneck(
          (conv1): Conv2d(1024, 256, kernel_size=(1, 1), stride=(1, 1), bias=False)
          (bn1): BatchNorm2d(256, eps=1e-05, momentum=0.1, affine=True, track_running_stats=True)
          (conv2): Conv2d(256, 256, kernel_size=(3, 3), stride=(1, 1), padding=(1, 1), bias=False)
          (bn2): BatchNorm2d(256, eps=1e-05, momentum=0.1, affine=True, track_running_stats=True)
          (conv3): Conv2d(256, 1024, kernel_size=(1, 1), stride=(1, 1), bias=False)
          (bn3): BatchNorm2d(1024, eps=1e-05, momentum=0.1, affine=True, track_running_stats=True)
          (relu): ReLU(inplace=True)
          (drop_path): Identity()
        )
        (16): Bottleneck(
          (conv1): Conv2d(1024, 256, kernel_size=(1, 1), stride=(1, 1), bias=False)
          (bn1): BatchNorm2d(256, eps=1e-05, momentum=0.1, affine=True, track_running_stats=True)
          (conv2): Conv2d(256, 256, kernel_size=(3, 3), stride=(1, 1), padding=(1, 1), bias=False)
          (bn2): BatchNorm2d(256, eps=1e-05, momentum=0.1, affine=True, track_running_stats=True)
          (conv3): Conv2d(256, 1024, kernel_size=(1, 1), stride=(1, 1), bias=False)
          (bn3): BatchNorm2d(1024, eps=1e-05, momentum=0.1, affine=True, track_running_stats=True)
          (relu): ReLU(inplace=True)
          (drop_path): Identity()
        )
        (17): Bottleneck(
          (conv1): Conv2d(1024, 256, kernel_size=(1, 1), stride=(1, 1), bias=False)
          (bn1): BatchNorm2d(256, eps=1e-05, momentum=0.1, affine=True, track_running_stats=True)
          (conv2): Conv2d(256, 256, kernel_size=(3, 3), stride=(1, 1), padding=(1, 1), bias=False)
          (bn2): BatchNorm2d(256, eps=1e-05, momentum=0.1, affine=True, track_running_stats=True)
          (conv3): Conv2d(256, 1024, kernel_size=(1, 1), stride=(1, 1), bias=False)
          (bn3): BatchNorm2d(1024, eps=1e-05, momentum=0.1, affine=True, track_running_stats=True)
          (relu): ReLU(inplace=True)
          (drop_path): Identity()
        )
        (18): Bottleneck(
          (conv1): Conv2d(1024, 256, kernel_size=(1, 1), stride=(1, 1), bias=False)
          (bn1): BatchNorm2d(256, eps=1e-05, momentum=0.1, affine=True, track_running_stats=True)
          (conv2): Conv2d(256, 256, kernel_size=(3, 3), stride=(1, 1), padding=(1, 1), bias=False)
          (bn2): BatchNorm2d(256, eps=1e-05, momentum=0.1, affine=True, track_running_stats=True)
          (conv3): Conv2d(256, 1024, kernel_size=(1, 1), stride=(1, 1), bias=False)
          (bn3): BatchNorm2d(1024, eps=1e-05, momentum=0.1, affine=True, track_running_stats=True)
          (relu): ReLU(inplace=True)
          (drop_path): Identity()
        )
        (19): Bottleneck(
          (conv1): Conv2d(1024, 256, kernel_size=(1, 1), stride=(1, 1), bias=False)
          (bn1): BatchNorm2d(256, eps=1e-05, momentum=0.1, affine=True, track_running_stats=True)
          (conv2): Conv2d(256, 256, kernel_size=(3, 3), stride=(1, 1), padding=(1, 1), bias=False)
          (bn2): BatchNorm2d(256, eps=1e-05, momentum=0.1, affine=True, track_running_stats=True)
          (conv3): Conv2d(256, 1024, kernel_size=(1, 1), stride=(1, 1), bias=False)
          (bn3): BatchNorm2d(1024, eps=1e-05, momentum=0.1, affine=True, track_running_stats=True)
          (relu): ReLU(inplace=True)
          (drop_path): Identity()
        )
        (20): Bottleneck(
          (conv1): Conv2d(1024, 256, kernel_size=(1, 1), stride=(1, 1), bias=False)
          (bn1): BatchNorm2d(256, eps=1e-05, momentum=0.1, affine=True, track_running_stats=True)
          (conv2): Conv2d(256, 256, kernel_size=(3, 3), stride=(1, 1), padding=(1, 1), bias=False)
          (bn2): BatchNorm2d(256, eps=1e-05, momentum=0.1, affine=True, track_running_stats=True)
          (conv3): Conv2d(256, 1024, kernel_size=(1, 1), stride=(1, 1), bias=False)
          (bn3): BatchNorm2d(1024, eps=1e-05, momentum=0.1, affine=True, track_running_stats=True)
          (relu): ReLU(inplace=True)
          (drop_path): Identity()
        )
        (21): Bottleneck(
          (conv1): Conv2d(1024, 256, kernel_size=(1, 1), stride=(1, 1), bias=False)
          (bn1): BatchNorm2d(256, eps=1e-05, momentum=0.1, affine=True, track_running_stats=True)
          (conv2): Conv2d(256, 256, kernel_size=(3, 3), stride=(1, 1), padding=(1, 1), bias=False)
          (bn2): BatchNorm2d(256, eps=1e-05, momentum=0.1, affine=True, track_running_stats=True)
          (conv3): Conv2d(256, 1024, kernel_size=(1, 1), stride=(1, 1), bias=False)
          (bn3): BatchNorm2d(1024, eps=1e-05, momentum=0.1, affine=True, track_running_stats=True)
          (relu): ReLU(inplace=True)
          (drop_path): Identity()
        )
        (22): Bottleneck(
          (conv1): Conv2d(1024, 256, kernel_size=(1, 1), stride=(1, 1), bias=False)
          (bn1): BatchNorm2d(256, eps=1e-05, momentum=0.1, affine=True, track_running_stats=True)
          (conv2): Conv2d(256, 256, kernel_size=(3, 3), stride=(1, 1), padding=(1, 1), bias=False)
          (bn2): BatchNorm2d(256, eps=1e-05, momentum=0.1, affine=True, track_running_stats=True)
          (conv3): Conv2d(256, 1024, kernel_size=(1, 1), stride=(1, 1), bias=False)
          (bn3): BatchNorm2d(1024, eps=1e-05, momentum=0.1, affine=True, track_running_stats=True)
          (relu): ReLU(inplace=True)
          (drop_path): Identity()
        )
        (23): Bottleneck(
          (conv1): Conv2d(1024, 256, kernel_size=(1, 1), stride=(1, 1), bias=False)
          (bn1): BatchNorm2d(256, eps=1e-05, momentum=0.1, affine=True, track_running_stats=True)
          (conv2): Conv2d(256, 256, kernel_size=(3, 3), stride=(1, 1), padding=(1, 1), bias=False)
          (bn2): BatchNorm2d(256, eps=1e-05, momentum=0.1, affine=True, track_running_stats=True)
          (conv3): Conv2d(256, 1024, kernel_size=(1, 1), stride=(1, 1), bias=False)
          (bn3): BatchNorm2d(1024, eps=1e-05, momentum=0.1, affine=True, track_running_stats=True)
          (relu): ReLU(inplace=True)
          (drop_path): Identity()
        )
        (24): Bottleneck(
          (conv1): Conv2d(1024, 256, kernel_size=(1, 1), stride=(1, 1), bias=False)
          (bn1): BatchNorm2d(256, eps=1e-05, momentum=0.1, affine=True, track_running_stats=True)
          (conv2): Conv2d(256, 256, kernel_size=(3, 3), stride=(1, 1), padding=(1, 1), bias=False)
          (bn2): BatchNorm2d(256, eps=1e-05, momentum=0.1, affine=True, track_running_stats=True)
          (conv3): Conv2d(256, 1024, kernel_size=(1, 1), stride=(1, 1), bias=False)
          (bn3): BatchNorm2d(1024, eps=1e-05, momentum=0.1, affine=True, track_running_stats=True)
          (relu): ReLU(inplace=True)
          (drop_path): Identity()
        )
        (25): Bottleneck(
          (conv1): Conv2d(1024, 256, kernel_size=(1, 1), stride=(1, 1), bias=False)
          (bn1): BatchNorm2d(256, eps=1e-05, momentum=0.1, affine=True, track_running_stats=True)
          (conv2): Conv2d(256, 256, kernel_size=(3, 3), stride=(1, 1), padding=(1, 1), bias=False)
          (bn2): BatchNorm2d(256, eps=1e-05, momentum=0.1, affine=True, track_running_stats=True)
          (conv3): Conv2d(256, 1024, kernel_size=(1, 1), stride=(1, 1), bias=False)
          (bn3): BatchNorm2d(1024, eps=1e-05, momentum=0.1, affine=True, track_running_stats=True)
          (relu): ReLU(inplace=True)
          (drop_path): Identity()
        )
        (26): Bottleneck(
          (conv1): Conv2d(1024, 256, kernel_size=(1, 1), stride=(1, 1), bias=False)
          (bn1): BatchNorm2d(256, eps=1e-05, momentum=0.1, affine=True, track_running_stats=True)
          (conv2): Conv2d(256, 256, kernel_size=(3, 3), stride=(1, 1), padding=(1, 1), bias=False)
          (bn2): BatchNorm2d(256, eps=1e-05, momentum=0.1, affine=True, track_running_stats=True)
          (conv3): Conv2d(256, 1024, kernel_size=(1, 1), stride=(1, 1), bias=False)
          (bn3): BatchNorm2d(1024, eps=1e-05, momentum=0.1, affine=True, track_running_stats=True)
          (relu): ReLU(inplace=True)
          (drop_path): Identity()
        )
        (27): Bottleneck(
          (conv1): Conv2d(1024, 256, kernel_size=(1, 1), stride=(1, 1), bias=False)
          (bn1): BatchNorm2d(256, eps=1e-05, momentum=0.1, affine=True, track_running_stats=True)
          (conv2): Conv2d(256, 256, kernel_size=(3, 3), stride=(1, 1), padding=(1, 1), bias=False)
          (bn2): BatchNorm2d(256, eps=1e-05, momentum=0.1, affine=True, track_running_stats=True)
          (conv3): Conv2d(256, 1024, kernel_size=(1, 1), stride=(1, 1), bias=False)
          (bn3): BatchNorm2d(1024, eps=1e-05, momentum=0.1, affine=True, track_running_stats=True)
          (relu): ReLU(inplace=True)
          (drop_path): Identity()
        )
        (28): Bottleneck(
          (conv1): Conv2d(1024, 256, kernel_size=(1, 1), stride=(1, 1), bias=False)
          (bn1): BatchNorm2d(256, eps=1e-05, momentum=0.1, affine=True, track_running_stats=True)
          (conv2): Conv2d(256, 256, kernel_size=(3, 3), stride=(1, 1), padding=(1, 1), bias=False)
          (bn2): BatchNorm2d(256, eps=1e-05, momentum=0.1, affine=True, track_running_stats=True)
          (conv3): Conv2d(256, 1024, kernel_size=(1, 1), stride=(1, 1), bias=False)
          (bn3): BatchNorm2d(1024, eps=1e-05, momentum=0.1, affine=True, track_running_stats=True)
          (relu): ReLU(inplace=True)
          (drop_path): Identity()
        )
        (29): Bottleneck(
          (conv1): Conv2d(1024, 256, kernel_size=(1, 1), stride=(1, 1), bias=False)
          (bn1): BatchNorm2d(256, eps=1e-05, momentum=0.1, affine=True, track_running_stats=True)
          (conv2): Conv2d(256, 256, kernel_size=(3, 3), stride=(1, 1), padding=(1, 1), bias=False)
          (bn2): BatchNorm2d(256, eps=1e-05, momentum=0.1, affine=True, track_running_stats=True)
          (conv3): Conv2d(256, 1024, kernel_size=(1, 1), stride=(1, 1), bias=False)
          (bn3): BatchNorm2d(1024, eps=1e-05, momentum=0.1, affine=True, track_running_stats=True)
          (relu): ReLU(inplace=True)
          (drop_path): Identity()
        )
        (30): Bottleneck(
          (conv1): Conv2d(1024, 256, kernel_size=(1, 1), stride=(1, 1), bias=False)
          (bn1): BatchNorm2d(256, eps=1e-05, momentum=0.1, affine=True, track_running_stats=True)
          (conv2): Conv2d(256, 256, kernel_size=(3, 3), stride=(1, 1), padding=(1, 1), bias=False)
          (bn2): BatchNorm2d(256, eps=1e-05, momentum=0.1, affine=True, track_running_stats=True)
          (conv3): Conv2d(256, 1024, kernel_size=(1, 1), stride=(1, 1), bias=False)
          (bn3): BatchNorm2d(1024, eps=1e-05, momentum=0.1, affine=True, track_running_stats=True)
          (relu): ReLU(inplace=True)
          (drop_path): Identity()
        )
        (31): Bottleneck(
          (conv1): Conv2d(1024, 256, kernel_size=(1, 1), stride=(1, 1), bias=False)
          (bn1): BatchNorm2d(256, eps=1e-05, momentum=0.1, affine=True, track_running_stats=True)
          (conv2): Conv2d(256, 256, kernel_size=(3, 3), stride=(1, 1), padding=(1, 1), bias=False)
          (bn2): BatchNorm2d(256, eps=1e-05, momentum=0.1, affine=True, track_running_stats=True)
          (conv3): Conv2d(256, 1024, kernel_size=(1, 1), stride=(1, 1), bias=False)
          (bn3): BatchNorm2d(1024, eps=1e-05, momentum=0.1, affine=True, track_running_stats=True)
          (relu): ReLU(inplace=True)
          (drop_path): Identity()
        )
        (32): Bottleneck(
          (conv1): Conv2d(1024, 256, kernel_size=(1, 1), stride=(1, 1), bias=False)
          (bn1): BatchNorm2d(256, eps=1e-05, momentum=0.1, affine=True, track_running_stats=True)
          (conv2): Conv2d(256, 256, kernel_size=(3, 3), stride=(1, 1), padding=(1, 1), bias=False)
          (bn2): BatchNorm2d(256, eps=1e-05, momentum=0.1, affine=True, track_running_stats=True)
          (conv3): Conv2d(256, 1024, kernel_size=(1, 1), stride=(1, 1), bias=False)
          (bn3): BatchNorm2d(1024, eps=1e-05, momentum=0.1, affine=True, track_running_stats=True)
          (relu): ReLU(inplace=True)
          (drop_path): Identity()
        )
        (33): Bottleneck(
          (conv1): Conv2d(1024, 256, kernel_size=(1, 1), stride=(1, 1), bias=False)
          (bn1): BatchNorm2d(256, eps=1e-05, momentum=0.1, affine=True, track_running_stats=True)
          (conv2): Conv2d(256, 256, kernel_size=(3, 3), stride=(1, 1), padding=(1, 1), bias=False)
          (bn2): BatchNorm2d(256, eps=1e-05, momentum=0.1, affine=True, track_running_stats=True)
          (conv3): Conv2d(256, 1024, kernel_size=(1, 1), stride=(1, 1), bias=False)
          (bn3): BatchNorm2d(1024, eps=1e-05, momentum=0.1, affine=True, track_running_stats=True)
          (relu): ReLU(inplace=True)
          (drop_path): Identity()
        )
        (34): Bottleneck(
          (conv1): Conv2d(1024, 256, kernel_size=(1, 1), stride=(1, 1), bias=False)
          (bn1): BatchNorm2d(256, eps=1e-05, momentum=0.1, affine=True, track_running_stats=True)
          (conv2): Conv2d(256, 256, kernel_size=(3, 3), stride=(1, 1), padding=(1, 1), bias=False)
          (bn2): BatchNorm2d(256, eps=1e-05, momentum=0.1, affine=True, track_running_stats=True)
          (conv3): Conv2d(256, 1024, kernel_size=(1, 1), stride=(1, 1), bias=False)
          (bn3): BatchNorm2d(1024, eps=1e-05, momentum=0.1, affine=True, track_running_stats=True)
          (relu): ReLU(inplace=True)
          (drop_path): Identity()
        )
        (35): Bottleneck(
          (conv1): Conv2d(1024, 256, kernel_size=(1, 1), stride=(1, 1), bias=False)
          (bn1): BatchNorm2d(256, eps=1e-05, momentum=0.1, affine=True, track_running_stats=True)
          (conv2): Conv2d(256, 256, kernel_size=(3, 3), stride=(1, 1), padding=(1, 1), bias=False)
          (bn2): BatchNorm2d(256, eps=1e-05, momentum=0.1, affine=True, track_running_stats=True)
          (conv3): Conv2d(256, 1024, kernel_size=(1, 1), stride=(1, 1), bias=False)
          (bn3): BatchNorm2d(1024, eps=1e-05, momentum=0.1, affine=True, track_running_stats=True)
          (relu): ReLU(inplace=True)
          (drop_path): Identity()
        )
      )
    )
    (image_proj): Linear(in_features=1024, out_features=1024, bias=True)
    (patch_layernorm_embedding): FusedLayerNorm(torch.Size([1024]), eps=1e-05, elementwise_affine=True)
    (embed_positions): Embedding(1026, 1024)
    (embed_image_positions): Embedding(1765, 1024)
    (pos_ln): FusedLayerNorm(torch.Size([1024]), eps=1e-05, elementwise_affine=True)
    (image_pos_ln): FusedLayerNorm(torch.Size([1024]), eps=1e-05, elementwise_affine=True)
    (pos_q_linear): Linear(in_features=1024, out_features=1024, bias=True)
    (pos_k_linear): Linear(in_features=1024, out_features=1024, bias=True)
    (layers): ModuleList(
      (0): TransformerEncoderLayer(
        (self_attn): MultiheadAttention(
          (dropout_module): FairseqDropout()
          (k_proj): Linear(in_features=1024, out_features=1024, bias=True)
          (v_proj): Linear(in_features=1024, out_features=1024, bias=True)
          (q_proj): Linear(in_features=1024, out_features=1024, bias=True)
          (out_proj): Linear(in_features=1024, out_features=1024, bias=True)
        )
        (self_attn_layer_norm): FusedLayerNorm(torch.Size([1024]), eps=1e-05, elementwise_affine=True)
        (dropout_module): FairseqDropout()
        (moe_layer): MOELayer(
          (gate): Top1Gate(
            (wg): Linear(in_features=1024, out_features=4, bias=False)
          )
          (experts): ModuleList(
            (0): FeedForwardNetwork(
              (activation_dropout_module): FairseqDropout()
              (fc1): Linear(in_features=1024, out_features=4096, bias=True)
              (fc2): Linear(in_features=4096, out_features=1024, bias=True)
              (dropout_module): FairseqDropout()
            )
          )
        )
        (attn_ln): FusedLayerNorm(torch.Size([1024]), eps=1e-05, elementwise_affine=True)
        (ffn_layernorm): FusedLayerNorm(torch.Size([4096]), eps=1e-05, elementwise_affine=True)
        (final_layer_norm): FusedLayerNorm(torch.Size([1024]), eps=1e-05, elementwise_affine=True)
        (drop_path): Identity()
      )
      (1): TransformerEncoderLayer(
        (self_attn): MultiheadAttention(
          (dropout_module): FairseqDropout()
          (k_proj): Linear(in_features=1024, out_features=1024, bias=True)
          (v_proj): Linear(in_features=1024, out_features=1024, bias=True)
          (q_proj): Linear(in_features=1024, out_features=1024, bias=True)
          (out_proj): Linear(in_features=1024, out_features=1024, bias=True)
        )
        (self_attn_layer_norm): FusedLayerNorm(torch.Size([1024]), eps=1e-05, elementwise_affine=True)
        (dropout_module): FairseqDropout()
        (moe_layer): MOELayer(
          (gate): Top1Gate(
            (wg): Linear(in_features=1024, out_features=4, bias=False)
          )
          (experts): ModuleList(
            (0): FeedForwardNetwork(
              (activation_dropout_module): FairseqDropout()
              (fc1): Linear(in_features=1024, out_features=4096, bias=True)
              (fc2): Linear(in_features=4096, out_features=1024, bias=True)
              (dropout_module): FairseqDropout()
            )
          )
        )
        (attn_ln): FusedLayerNorm(torch.Size([1024]), eps=1e-05, elementwise_affine=True)
        (ffn_layernorm): FusedLayerNorm(torch.Size([4096]), eps=1e-05, elementwise_affine=True)
        (final_layer_norm): FusedLayerNorm(torch.Size([1024]), eps=1e-05, elementwise_affine=True)
        (drop_path): Identity()
      )
      (2): TransformerEncoderLayer(
        (self_attn): MultiheadAttention(
          (dropout_module): FairseqDropout()
          (k_proj): Linear(in_features=1024, out_features=1024, bias=True)
          (v_proj): Linear(in_features=1024, out_features=1024, bias=True)
          (q_proj): Linear(in_features=1024, out_features=1024, bias=True)
          (out_proj): Linear(in_features=1024, out_features=1024, bias=True)
        )
        (self_attn_layer_norm): FusedLayerNorm(torch.Size([1024]), eps=1e-05, elementwise_affine=True)
        (dropout_module): FairseqDropout()
        (moe_layer): MOELayer(
          (gate): Top1Gate(
            (wg): Linear(in_features=1024, out_features=4, bias=False)
          )
          (experts): ModuleList(
            (0): FeedForwardNetwork(
              (activation_dropout_module): FairseqDropout()
              (fc1): Linear(in_features=1024, out_features=4096, bias=True)
              (fc2): Linear(in_features=4096, out_features=1024, bias=True)
              (dropout_module): FairseqDropout()
            )
          )
        )
        (attn_ln): FusedLayerNorm(torch.Size([1024]), eps=1e-05, elementwise_affine=True)
        (ffn_layernorm): FusedLayerNorm(torch.Size([4096]), eps=1e-05, elementwise_affine=True)
        (final_layer_norm): FusedLayerNorm(torch.Size([1024]), eps=1e-05, elementwise_affine=True)
        (drop_path): Identity()
      )
      (3): TransformerEncoderLayer(
        (self_attn): MultiheadAttention(
          (dropout_module): FairseqDropout()
          (k_proj): Linear(in_features=1024, out_features=1024, bias=True)
          (v_proj): Linear(in_features=1024, out_features=1024, bias=True)
          (q_proj): Linear(in_features=1024, out_features=1024, bias=True)
          (out_proj): Linear(in_features=1024, out_features=1024, bias=True)
        )
        (self_attn_layer_norm): FusedLayerNorm(torch.Size([1024]), eps=1e-05, elementwise_affine=True)
        (dropout_module): FairseqDropout()
        (moe_layer): MOELayer(
          (gate): Top1Gate(
            (wg): Linear(in_features=1024, out_features=4, bias=False)
          )
          (experts): ModuleList(
            (0): FeedForwardNetwork(
              (activation_dropout_module): FairseqDropout()
              (fc1): Linear(in_features=1024, out_features=4096, bias=True)
              (fc2): Linear(in_features=4096, out_features=1024, bias=True)
              (dropout_module): FairseqDropout()
            )
          )
        )
        (attn_ln): FusedLayerNorm(torch.Size([1024]), eps=1e-05, elementwise_affine=True)
        (ffn_layernorm): FusedLayerNorm(torch.Size([4096]), eps=1e-05, elementwise_affine=True)
        (final_layer_norm): FusedLayerNorm(torch.Size([1024]), eps=1e-05, elementwise_affine=True)
        (drop_path): Identity()
      )
      (4): TransformerEncoderLayer(
        (self_attn): MultiheadAttention(
          (dropout_module): FairseqDropout()
          (k_proj): Linear(in_features=1024, out_features=1024, bias=True)
          (v_proj): Linear(in_features=1024, out_features=1024, bias=True)
          (q_proj): Linear(in_features=1024, out_features=1024, bias=True)
          (out_proj): Linear(in_features=1024, out_features=1024, bias=True)
        )
        (self_attn_layer_norm): FusedLayerNorm(torch.Size([1024]), eps=1e-05, elementwise_affine=True)
        (dropout_module): FairseqDropout()
        (moe_layer): MOELayer(
          (gate): Top1Gate(
            (wg): Linear(in_features=1024, out_features=4, bias=False)
          )
          (experts): ModuleList(
            (0): FeedForwardNetwork(
              (activation_dropout_module): FairseqDropout()
              (fc1): Linear(in_features=1024, out_features=4096, bias=True)
              (fc2): Linear(in_features=4096, out_features=1024, bias=True)
              (dropout_module): FairseqDropout()
            )
          )
        )
        (attn_ln): FusedLayerNorm(torch.Size([1024]), eps=1e-05, elementwise_affine=True)
        (ffn_layernorm): FusedLayerNorm(torch.Size([4096]), eps=1e-05, elementwise_affine=True)
        (final_layer_norm): FusedLayerNorm(torch.Size([1024]), eps=1e-05, elementwise_affine=True)
        (drop_path): Identity()
      )
      (5): TransformerEncoderLayer(
        (self_attn): MultiheadAttention(
          (dropout_module): FairseqDropout()
          (k_proj): Linear(in_features=1024, out_features=1024, bias=True)
          (v_proj): Linear(in_features=1024, out_features=1024, bias=True)
          (q_proj): Linear(in_features=1024, out_features=1024, bias=True)
          (out_proj): Linear(in_features=1024, out_features=1024, bias=True)
        )
        (self_attn_layer_norm): FusedLayerNorm(torch.Size([1024]), eps=1e-05, elementwise_affine=True)
        (dropout_module): FairseqDropout()
        (moe_layer): MOELayer(
          (gate): Top1Gate(
            (wg): Linear(in_features=1024, out_features=4, bias=False)
          )
          (experts): ModuleList(
            (0): FeedForwardNetwork(
              (activation_dropout_module): FairseqDropout()
              (fc1): Linear(in_features=1024, out_features=4096, bias=True)
              (fc2): Linear(in_features=4096, out_features=1024, bias=True)
              (dropout_module): FairseqDropout()
            )
          )
        )
        (attn_ln): FusedLayerNorm(torch.Size([1024]), eps=1e-05, elementwise_affine=True)
        (ffn_layernorm): FusedLayerNorm(torch.Size([4096]), eps=1e-05, elementwise_affine=True)
        (final_layer_norm): FusedLayerNorm(torch.Size([1024]), eps=1e-05, elementwise_affine=True)
        (drop_path): Identity()
      )
      (6): TransformerEncoderLayer(
        (self_attn): MultiheadAttention(
          (dropout_module): FairseqDropout()
          (k_proj): Linear(in_features=1024, out_features=1024, bias=True)
          (v_proj): Linear(in_features=1024, out_features=1024, bias=True)
          (q_proj): Linear(in_features=1024, out_features=1024, bias=True)
          (out_proj): Linear(in_features=1024, out_features=1024, bias=True)
        )
        (self_attn_layer_norm): FusedLayerNorm(torch.Size([1024]), eps=1e-05, elementwise_affine=True)
        (dropout_module): FairseqDropout()
        (moe_layer): MOELayer(
          (gate): Top1Gate(
            (wg): Linear(in_features=1024, out_features=4, bias=False)
          )
          (experts): ModuleList(
            (0): FeedForwardNetwork(
              (activation_dropout_module): FairseqDropout()
              (fc1): Linear(in_features=1024, out_features=4096, bias=True)
              (fc2): Linear(in_features=4096, out_features=1024, bias=True)
              (dropout_module): FairseqDropout()
            )
          )
        )
        (attn_ln): FusedLayerNorm(torch.Size([1024]), eps=1e-05, elementwise_affine=True)
        (ffn_layernorm): FusedLayerNorm(torch.Size([4096]), eps=1e-05, elementwise_affine=True)
        (final_layer_norm): FusedLayerNorm(torch.Size([1024]), eps=1e-05, elementwise_affine=True)
        (drop_path): Identity()
      )
      (7): TransformerEncoderLayer(
        (self_attn): MultiheadAttention(
          (dropout_module): FairseqDropout()
          (k_proj): Linear(in_features=1024, out_features=1024, bias=True)
          (v_proj): Linear(in_features=1024, out_features=1024, bias=True)
          (q_proj): Linear(in_features=1024, out_features=1024, bias=True)
          (out_proj): Linear(in_features=1024, out_features=1024, bias=True)
        )
        (self_attn_layer_norm): FusedLayerNorm(torch.Size([1024]), eps=1e-05, elementwise_affine=True)
        (dropout_module): FairseqDropout()
        (moe_layer): MOELayer(
          (gate): Top1Gate(
            (wg): Linear(in_features=1024, out_features=4, bias=False)
          )
          (experts): ModuleList(
            (0): FeedForwardNetwork(
              (activation_dropout_module): FairseqDropout()
              (fc1): Linear(in_features=1024, out_features=4096, bias=True)
              (fc2): Linear(in_features=4096, out_features=1024, bias=True)
              (dropout_module): FairseqDropout()
            )
          )
        )
        (attn_ln): FusedLayerNorm(torch.Size([1024]), eps=1e-05, elementwise_affine=True)
        (ffn_layernorm): FusedLayerNorm(torch.Size([4096]), eps=1e-05, elementwise_affine=True)
        (final_layer_norm): FusedLayerNorm(torch.Size([1024]), eps=1e-05, elementwise_affine=True)
        (drop_path): Identity()
      )
      (8): TransformerEncoderLayer(
        (self_attn): MultiheadAttention(
          (dropout_module): FairseqDropout()
          (k_proj): Linear(in_features=1024, out_features=1024, bias=True)
          (v_proj): Linear(in_features=1024, out_features=1024, bias=True)
          (q_proj): Linear(in_features=1024, out_features=1024, bias=True)
          (out_proj): Linear(in_features=1024, out_features=1024, bias=True)
        )
        (self_attn_layer_norm): FusedLayerNorm(torch.Size([1024]), eps=1e-05, elementwise_affine=True)
        (dropout_module): FairseqDropout()
        (moe_layer): MOELayer(
          (gate): Top1Gate(
            (wg): Linear(in_features=1024, out_features=4, bias=False)
          )
          (experts): ModuleList(
            (0): FeedForwardNetwork(
              (activation_dropout_module): FairseqDropout()
              (fc1): Linear(in_features=1024, out_features=4096, bias=True)
              (fc2): Linear(in_features=4096, out_features=1024, bias=True)
              (dropout_module): FairseqDropout()
            )
          )
        )
        (attn_ln): FusedLayerNorm(torch.Size([1024]), eps=1e-05, elementwise_affine=True)
        (ffn_layernorm): FusedLayerNorm(torch.Size([4096]), eps=1e-05, elementwise_affine=True)
        (final_layer_norm): FusedLayerNorm(torch.Size([1024]), eps=1e-05, elementwise_affine=True)
        (drop_path): Identity()
      )
      (9): TransformerEncoderLayer(
        (self_attn): MultiheadAttention(
          (dropout_module): FairseqDropout()
          (k_proj): Linear(in_features=1024, out_features=1024, bias=True)
          (v_proj): Linear(in_features=1024, out_features=1024, bias=True)
          (q_proj): Linear(in_features=1024, out_features=1024, bias=True)
          (out_proj): Linear(in_features=1024, out_features=1024, bias=True)
        )
        (self_attn_layer_norm): FusedLayerNorm(torch.Size([1024]), eps=1e-05, elementwise_affine=True)
        (dropout_module): FairseqDropout()
        (moe_layer): MOELayer(
          (gate): Top1Gate(
            (wg): Linear(in_features=1024, out_features=4, bias=False)
          )
          (experts): ModuleList(
            (0): FeedForwardNetwork(
              (activation_dropout_module): FairseqDropout()
              (fc1): Linear(in_features=1024, out_features=4096, bias=True)
              (fc2): Linear(in_features=4096, out_features=1024, bias=True)
              (dropout_module): FairseqDropout()
            )
          )
        )
        (attn_ln): FusedLayerNorm(torch.Size([1024]), eps=1e-05, elementwise_affine=True)
        (ffn_layernorm): FusedLayerNorm(torch.Size([4096]), eps=1e-05, elementwise_affine=True)
        (final_layer_norm): FusedLayerNorm(torch.Size([1024]), eps=1e-05, elementwise_affine=True)
        (drop_path): Identity()
      )
      (10): TransformerEncoderLayer(
        (self_attn): MultiheadAttention(
          (dropout_module): FairseqDropout()
          (k_proj): Linear(in_features=1024, out_features=1024, bias=True)
          (v_proj): Linear(in_features=1024, out_features=1024, bias=True)
          (q_proj): Linear(in_features=1024, out_features=1024, bias=True)
          (out_proj): Linear(in_features=1024, out_features=1024, bias=True)
        )
        (self_attn_layer_norm): FusedLayerNorm(torch.Size([1024]), eps=1e-05, elementwise_affine=True)
        (dropout_module): FairseqDropout()
        (moe_layer): MOELayer(
          (gate): Top1Gate(
            (wg): Linear(in_features=1024, out_features=4, bias=False)
          )
          (experts): ModuleList(
            (0): FeedForwardNetwork(
              (activation_dropout_module): FairseqDropout()
              (fc1): Linear(in_features=1024, out_features=4096, bias=True)
              (fc2): Linear(in_features=4096, out_features=1024, bias=True)
              (dropout_module): FairseqDropout()
            )
          )
        )
        (attn_ln): FusedLayerNorm(torch.Size([1024]), eps=1e-05, elementwise_affine=True)
        (ffn_layernorm): FusedLayerNorm(torch.Size([4096]), eps=1e-05, elementwise_affine=True)
        (final_layer_norm): FusedLayerNorm(torch.Size([1024]), eps=1e-05, elementwise_affine=True)
        (drop_path): Identity()
      )
      (11): TransformerEncoderLayer(
        (self_attn): MultiheadAttention(
          (dropout_module): FairseqDropout()
          (k_proj): Linear(in_features=1024, out_features=1024, bias=True)
          (v_proj): Linear(in_features=1024, out_features=1024, bias=True)
          (q_proj): Linear(in_features=1024, out_features=1024, bias=True)
          (out_proj): Linear(in_features=1024, out_features=1024, bias=True)
        )
        (self_attn_layer_norm): FusedLayerNorm(torch.Size([1024]), eps=1e-05, elementwise_affine=True)
        (dropout_module): FairseqDropout()
        (moe_layer): MOELayer(
          (gate): Top1Gate(
            (wg): Linear(in_features=1024, out_features=4, bias=False)
          )
          (experts): ModuleList(
            (0): FeedForwardNetwork(
              (activation_dropout_module): FairseqDropout()
              (fc1): Linear(in_features=1024, out_features=4096, bias=True)
              (fc2): Linear(in_features=4096, out_features=1024, bias=True)
              (dropout_module): FairseqDropout()
            )
          )
        )
        (attn_ln): FusedLayerNorm(torch.Size([1024]), eps=1e-05, elementwise_affine=True)
        (ffn_layernorm): FusedLayerNorm(torch.Size([4096]), eps=1e-05, elementwise_affine=True)
        (final_layer_norm): FusedLayerNorm(torch.Size([1024]), eps=1e-05, elementwise_affine=True)
        (drop_path): Identity()
      )
    )
    (layer_norm): FusedLayerNorm(torch.Size([1024]), eps=1e-05, elementwise_affine=True)
    (token_rel_pos_table_list): ModuleList(
      (0): Embedding(511, 16)
      (1): Embedding(511, 16)
      (2): Embedding(511, 16)
      (3): Embedding(511, 16)
      (4): Embedding(511, 16)
      (5): Embedding(511, 16)
      (6): Embedding(511, 16)
      (7): Embedding(511, 16)
      (8): Embedding(511, 16)
      (9): Embedding(511, 16)
      (10): Embedding(511, 16)
      (11): Embedding(511, 16)
    )
    (image_rel_pos_table_list): ModuleList(
      (0): Embedding(6892, 16)
      (1): Embedding(6892, 16)
      (2): Embedding(6892, 16)
      (3): Embedding(6892, 16)
      (4): Embedding(6892, 16)
      (5): Embedding(6892, 16)
      (6): Embedding(6892, 16)
      (7): Embedding(6892, 16)
      (8): Embedding(6892, 16)
      (9): Embedding(6892, 16)
      (10): Embedding(6892, 16)
      (11): Embedding(6892, 16)
    )
  )
  (decoder): TransformerDecoder(
    (dropout_module): FairseqDropout()
    (embed_tokens): Embedding(59457, 1024, padding_idx=1)
    (layernorm_embedding): FusedLayerNorm(torch.Size([1024]), eps=1e-05, elementwise_affine=True)
    (embed_positions): Embedding(1026, 1024)
    (embed_image_positions): Embedding(1765, 1024)
    (pos_ln): FusedLayerNorm(torch.Size([1024]), eps=1e-05, elementwise_affine=True)
    (image_pos_ln): FusedLayerNorm(torch.Size([1024]), eps=1e-05, elementwise_affine=True)
    (self_pos_q_linear): Linear(in_features=1024, out_features=1024, bias=True)
    (self_pos_k_linear): Linear(in_features=1024, out_features=1024, bias=True)
    (cross_pos_q_linear): Linear(in_features=1024, out_features=1024, bias=True)
    (cross_pos_k_linear): Linear(in_features=1024, out_features=1024, bias=True)
    (code_layernorm_embedding): FusedLayerNorm(torch.Size([1024]), eps=1e-05, elementwise_affine=True)
    (layers): ModuleList(
      (0): TransformerDecoderLayer(
        (dropout_module): FairseqDropout()
        (self_attn): MultiheadAttention(
          (dropout_module): FairseqDropout()
          (k_proj): Linear(in_features=1024, out_features=1024, bias=True)
          (v_proj): Linear(in_features=1024, out_features=1024, bias=True)
          (q_proj): Linear(in_features=1024, out_features=1024, bias=True)
          (out_proj): Linear(in_features=1024, out_features=1024, bias=True)
        )
        (self_attn_ln): FusedLayerNorm(torch.Size([1024]), eps=1e-05, elementwise_affine=True)
        (cross_attn_ln): FusedLayerNorm(torch.Size([1024]), eps=1e-05, elementwise_affine=True)
        (self_attn_layer_norm): FusedLayerNorm(torch.Size([1024]), eps=1e-05, elementwise_affine=True)
        (encoder_attn): MultiheadAttention(
          (dropout_module): FairseqDropout()
          (k_proj): Linear(in_features=1024, out_features=1024, bias=True)
          (v_proj): Linear(in_features=1024, out_features=1024, bias=True)
          (q_proj): Linear(in_features=1024, out_features=1024, bias=True)
          (out_proj): Linear(in_features=1024, out_features=1024, bias=True)
        )
        (encoder_attn_layer_norm): FusedLayerNorm(torch.Size([1024]), eps=1e-05, elementwise_affine=True)
        (ffn_layernorm): FusedLayerNorm(torch.Size([4096]), eps=1e-05, elementwise_affine=True)
        (moe_layer): MOELayer(
          (gate): Top1Gate(
            (wg): Linear(in_features=1024, out_features=4, bias=False)
          )
          (experts): ModuleList(
            (0): FeedForwardNetwork(
              (activation_dropout_module): FairseqDropout()
              (fc1): Linear(in_features=1024, out_features=4096, bias=True)
              (fc2): Linear(in_features=4096, out_features=1024, bias=True)
              (dropout_module): FairseqDropout()
            )
          )
        )
        (final_layer_norm): FusedLayerNorm(torch.Size([1024]), eps=1e-05, elementwise_affine=True)
        (drop_path): Identity()
      )
      (1): TransformerDecoderLayer(
        (dropout_module): FairseqDropout()
        (self_attn): MultiheadAttention(
          (dropout_module): FairseqDropout()
          (k_proj): Linear(in_features=1024, out_features=1024, bias=True)
          (v_proj): Linear(in_features=1024, out_features=1024, bias=True)
          (q_proj): Linear(in_features=1024, out_features=1024, bias=True)
          (out_proj): Linear(in_features=1024, out_features=1024, bias=True)
        )
        (self_attn_ln): FusedLayerNorm(torch.Size([1024]), eps=1e-05, elementwise_affine=True)
        (cross_attn_ln): FusedLayerNorm(torch.Size([1024]), eps=1e-05, elementwise_affine=True)
        (self_attn_layer_norm): FusedLayerNorm(torch.Size([1024]), eps=1e-05, elementwise_affine=True)
        (encoder_attn): MultiheadAttention(
          (dropout_module): FairseqDropout()
          (k_proj): Linear(in_features=1024, out_features=1024, bias=True)
          (v_proj): Linear(in_features=1024, out_features=1024, bias=True)
          (q_proj): Linear(in_features=1024, out_features=1024, bias=True)
          (out_proj): Linear(in_features=1024, out_features=1024, bias=True)
        )
        (encoder_attn_layer_norm): FusedLayerNorm(torch.Size([1024]), eps=1e-05, elementwise_affine=True)
        (ffn_layernorm): FusedLayerNorm(torch.Size([4096]), eps=1e-05, elementwise_affine=True)
        (moe_layer): MOELayer(
          (gate): Top1Gate(
            (wg): Linear(in_features=1024, out_features=4, bias=False)
          )
          (experts): ModuleList(
            (0): FeedForwardNetwork(
              (activation_dropout_module): FairseqDropout()
              (fc1): Linear(in_features=1024, out_features=4096, bias=True)
              (fc2): Linear(in_features=4096, out_features=1024, bias=True)
              (dropout_module): FairseqDropout()
            )
          )
        )
        (final_layer_norm): FusedLayerNorm(torch.Size([1024]), eps=1e-05, elementwise_affine=True)
        (drop_path): Identity()
      )
      (2): TransformerDecoderLayer(
        (dropout_module): FairseqDropout()
        (self_attn): MultiheadAttention(
          (dropout_module): FairseqDropout()
          (k_proj): Linear(in_features=1024, out_features=1024, bias=True)
          (v_proj): Linear(in_features=1024, out_features=1024, bias=True)
          (q_proj): Linear(in_features=1024, out_features=1024, bias=True)
          (out_proj): Linear(in_features=1024, out_features=1024, bias=True)
        )
        (self_attn_ln): FusedLayerNorm(torch.Size([1024]), eps=1e-05, elementwise_affine=True)
        (cross_attn_ln): FusedLayerNorm(torch.Size([1024]), eps=1e-05, elementwise_affine=True)
        (self_attn_layer_norm): FusedLayerNorm(torch.Size([1024]), eps=1e-05, elementwise_affine=True)
        (encoder_attn): MultiheadAttention(
          (dropout_module): FairseqDropout()
          (k_proj): Linear(in_features=1024, out_features=1024, bias=True)
          (v_proj): Linear(in_features=1024, out_features=1024, bias=True)
          (q_proj): Linear(in_features=1024, out_features=1024, bias=True)
          (out_proj): Linear(in_features=1024, out_features=1024, bias=True)
        )
        (encoder_attn_layer_norm): FusedLayerNorm(torch.Size([1024]), eps=1e-05, elementwise_affine=True)
        (ffn_layernorm): FusedLayerNorm(torch.Size([4096]), eps=1e-05, elementwise_affine=True)
        (moe_layer): MOELayer(
          (gate): Top1Gate(
            (wg): Linear(in_features=1024, out_features=4, bias=False)
          )
          (experts): ModuleList(
            (0): FeedForwardNetwork(
              (activation_dropout_module): FairseqDropout()
              (fc1): Linear(in_features=1024, out_features=4096, bias=True)
              (fc2): Linear(in_features=4096, out_features=1024, bias=True)
              (dropout_module): FairseqDropout()
            )
          )
        )
        (final_layer_norm): FusedLayerNorm(torch.Size([1024]), eps=1e-05, elementwise_affine=True)
        (drop_path): Identity()
      )
      (3): TransformerDecoderLayer(
        (dropout_module): FairseqDropout()
        (self_attn): MultiheadAttention(
          (dropout_module): FairseqDropout()
          (k_proj): Linear(in_features=1024, out_features=1024, bias=True)
          (v_proj): Linear(in_features=1024, out_features=1024, bias=True)
          (q_proj): Linear(in_features=1024, out_features=1024, bias=True)
          (out_proj): Linear(in_features=1024, out_features=1024, bias=True)
        )
        (self_attn_ln): FusedLayerNorm(torch.Size([1024]), eps=1e-05, elementwise_affine=True)
        (cross_attn_ln): FusedLayerNorm(torch.Size([1024]), eps=1e-05, elementwise_affine=True)
        (self_attn_layer_norm): FusedLayerNorm(torch.Size([1024]), eps=1e-05, elementwise_affine=True)
        (encoder_attn): MultiheadAttention(
          (dropout_module): FairseqDropout()
          (k_proj): Linear(in_features=1024, out_features=1024, bias=True)
          (v_proj): Linear(in_features=1024, out_features=1024, bias=True)
          (q_proj): Linear(in_features=1024, out_features=1024, bias=True)
          (out_proj): Linear(in_features=1024, out_features=1024, bias=True)
        )
        (encoder_attn_layer_norm): FusedLayerNorm(torch.Size([1024]), eps=1e-05, elementwise_affine=True)
        (ffn_layernorm): FusedLayerNorm(torch.Size([4096]), eps=1e-05, elementwise_affine=True)
        (moe_layer): MOELayer(
          (gate): Top1Gate(
            (wg): Linear(in_features=1024, out_features=4, bias=False)
          )
          (experts): ModuleList(
            (0): FeedForwardNetwork(
              (activation_dropout_module): FairseqDropout()
              (fc1): Linear(in_features=1024, out_features=4096, bias=True)
              (fc2): Linear(in_features=4096, out_features=1024, bias=True)
              (dropout_module): FairseqDropout()
            )
          )
        )
        (final_layer_norm): FusedLayerNorm(torch.Size([1024]), eps=1e-05, elementwise_affine=True)
        (drop_path): Identity()
      )
      (4): TransformerDecoderLayer(
        (dropout_module): FairseqDropout()
        (self_attn): MultiheadAttention(
          (dropout_module): FairseqDropout()
          (k_proj): Linear(in_features=1024, out_features=1024, bias=True)
          (v_proj): Linear(in_features=1024, out_features=1024, bias=True)
          (q_proj): Linear(in_features=1024, out_features=1024, bias=True)
          (out_proj): Linear(in_features=1024, out_features=1024, bias=True)
        )
        (self_attn_ln): FusedLayerNorm(torch.Size([1024]), eps=1e-05, elementwise_affine=True)
        (cross_attn_ln): FusedLayerNorm(torch.Size([1024]), eps=1e-05, elementwise_affine=True)
        (self_attn_layer_norm): FusedLayerNorm(torch.Size([1024]), eps=1e-05, elementwise_affine=True)
        (encoder_attn): MultiheadAttention(
          (dropout_module): FairseqDropout()
          (k_proj): Linear(in_features=1024, out_features=1024, bias=True)
          (v_proj): Linear(in_features=1024, out_features=1024, bias=True)
          (q_proj): Linear(in_features=1024, out_features=1024, bias=True)
          (out_proj): Linear(in_features=1024, out_features=1024, bias=True)
        )
        (encoder_attn_layer_norm): FusedLayerNorm(torch.Size([1024]), eps=1e-05, elementwise_affine=True)
        (ffn_layernorm): FusedLayerNorm(torch.Size([4096]), eps=1e-05, elementwise_affine=True)
        (moe_layer): MOELayer(
          (gate): Top1Gate(
            (wg): Linear(in_features=1024, out_features=4, bias=False)
          )
          (experts): ModuleList(
            (0): FeedForwardNetwork(
              (activation_dropout_module): FairseqDropout()
              (fc1): Linear(in_features=1024, out_features=4096, bias=True)
              (fc2): Linear(in_features=4096, out_features=1024, bias=True)
              (dropout_module): FairseqDropout()
            )
          )
        )
        (final_layer_norm): FusedLayerNorm(torch.Size([1024]), eps=1e-05, elementwise_affine=True)
        (drop_path): Identity()
      )
      (5): TransformerDecoderLayer(
        (dropout_module): FairseqDropout()
        (self_attn): MultiheadAttention(
          (dropout_module): FairseqDropout()
          (k_proj): Linear(in_features=1024, out_features=1024, bias=True)
          (v_proj): Linear(in_features=1024, out_features=1024, bias=True)
          (q_proj): Linear(in_features=1024, out_features=1024, bias=True)
          (out_proj): Linear(in_features=1024, out_features=1024, bias=True)
        )
        (self_attn_ln): FusedLayerNorm(torch.Size([1024]), eps=1e-05, elementwise_affine=True)
        (cross_attn_ln): FusedLayerNorm(torch.Size([1024]), eps=1e-05, elementwise_affine=True)
        (self_attn_layer_norm): FusedLayerNorm(torch.Size([1024]), eps=1e-05, elementwise_affine=True)
        (encoder_attn): MultiheadAttention(
          (dropout_module): FairseqDropout()
          (k_proj): Linear(in_features=1024, out_features=1024, bias=True)
          (v_proj): Linear(in_features=1024, out_features=1024, bias=True)
          (q_proj): Linear(in_features=1024, out_features=1024, bias=True)
          (out_proj): Linear(in_features=1024, out_features=1024, bias=True)
        )
        (encoder_attn_layer_norm): FusedLayerNorm(torch.Size([1024]), eps=1e-05, elementwise_affine=True)
        (ffn_layernorm): FusedLayerNorm(torch.Size([4096]), eps=1e-05, elementwise_affine=True)
        (moe_layer): MOELayer(
          (gate): Top1Gate(
            (wg): Linear(in_features=1024, out_features=4, bias=False)
          )
          (experts): ModuleList(
            (0): FeedForwardNetwork(
              (activation_dropout_module): FairseqDropout()
              (fc1): Linear(in_features=1024, out_features=4096, bias=True)
              (fc2): Linear(in_features=4096, out_features=1024, bias=True)
              (dropout_module): FairseqDropout()
            )
          )
        )
        (final_layer_norm): FusedLayerNorm(torch.Size([1024]), eps=1e-05, elementwise_affine=True)
        (drop_path): Identity()
      )
      (6): TransformerDecoderLayer(
        (dropout_module): FairseqDropout()
        (self_attn): MultiheadAttention(
          (dropout_module): FairseqDropout()
          (k_proj): Linear(in_features=1024, out_features=1024, bias=True)
          (v_proj): Linear(in_features=1024, out_features=1024, bias=True)
          (q_proj): Linear(in_features=1024, out_features=1024, bias=True)
          (out_proj): Linear(in_features=1024, out_features=1024, bias=True)
        )
        (self_attn_ln): FusedLayerNorm(torch.Size([1024]), eps=1e-05, elementwise_affine=True)
        (cross_attn_ln): FusedLayerNorm(torch.Size([1024]), eps=1e-05, elementwise_affine=True)
        (self_attn_layer_norm): FusedLayerNorm(torch.Size([1024]), eps=1e-05, elementwise_affine=True)
        (encoder_attn): MultiheadAttention(
          (dropout_module): FairseqDropout()
          (k_proj): Linear(in_features=1024, out_features=1024, bias=True)
          (v_proj): Linear(in_features=1024, out_features=1024, bias=True)
          (q_proj): Linear(in_features=1024, out_features=1024, bias=True)
          (out_proj): Linear(in_features=1024, out_features=1024, bias=True)
        )
        (encoder_attn_layer_norm): FusedLayerNorm(torch.Size([1024]), eps=1e-05, elementwise_affine=True)
        (ffn_layernorm): FusedLayerNorm(torch.Size([4096]), eps=1e-05, elementwise_affine=True)
        (moe_layer): MOELayer(
          (gate): Top1Gate(
            (wg): Linear(in_features=1024, out_features=4, bias=False)
          )
          (experts): ModuleList(
            (0): FeedForwardNetwork(
              (activation_dropout_module): FairseqDropout()
              (fc1): Linear(in_features=1024, out_features=4096, bias=True)
              (fc2): Linear(in_features=4096, out_features=1024, bias=True)
              (dropout_module): FairseqDropout()
            )
          )
        )
        (final_layer_norm): FusedLayerNorm(torch.Size([1024]), eps=1e-05, elementwise_affine=True)
        (drop_path): Identity()
      )
      (7): TransformerDecoderLayer(
        (dropout_module): FairseqDropout()
        (self_attn): MultiheadAttention(
          (dropout_module): FairseqDropout()
          (k_proj): Linear(in_features=1024, out_features=1024, bias=True)
          (v_proj): Linear(in_features=1024, out_features=1024, bias=True)
          (q_proj): Linear(in_features=1024, out_features=1024, bias=True)
          (out_proj): Linear(in_features=1024, out_features=1024, bias=True)
        )
        (self_attn_ln): FusedLayerNorm(torch.Size([1024]), eps=1e-05, elementwise_affine=True)
        (cross_attn_ln): FusedLayerNorm(torch.Size([1024]), eps=1e-05, elementwise_affine=True)
        (self_attn_layer_norm): FusedLayerNorm(torch.Size([1024]), eps=1e-05, elementwise_affine=True)
        (encoder_attn): MultiheadAttention(
          (dropout_module): FairseqDropout()
          (k_proj): Linear(in_features=1024, out_features=1024, bias=True)
          (v_proj): Linear(in_features=1024, out_features=1024, bias=True)
          (q_proj): Linear(in_features=1024, out_features=1024, bias=True)
          (out_proj): Linear(in_features=1024, out_features=1024, bias=True)
        )
        (encoder_attn_layer_norm): FusedLayerNorm(torch.Size([1024]), eps=1e-05, elementwise_affine=True)
        (ffn_layernorm): FusedLayerNorm(torch.Size([4096]), eps=1e-05, elementwise_affine=True)
        (moe_layer): MOELayer(
          (gate): Top1Gate(
            (wg): Linear(in_features=1024, out_features=4, bias=False)
          )
          (experts): ModuleList(
            (0): FeedForwardNetwork(
              (activation_dropout_module): FairseqDropout()
              (fc1): Linear(in_features=1024, out_features=4096, bias=True)
              (fc2): Linear(in_features=4096, out_features=1024, bias=True)
              (dropout_module): FairseqDropout()
            )
          )
        )
        (final_layer_norm): FusedLayerNorm(torch.Size([1024]), eps=1e-05, elementwise_affine=True)
        (drop_path): Identity()
      )
      (8): TransformerDecoderLayer(
        (dropout_module): FairseqDropout()
        (self_attn): MultiheadAttention(
          (dropout_module): FairseqDropout()
          (k_proj): Linear(in_features=1024, out_features=1024, bias=True)
          (v_proj): Linear(in_features=1024, out_features=1024, bias=True)
          (q_proj): Linear(in_features=1024, out_features=1024, bias=True)
          (out_proj): Linear(in_features=1024, out_features=1024, bias=True)
        )
        (self_attn_ln): FusedLayerNorm(torch.Size([1024]), eps=1e-05, elementwise_affine=True)
        (cross_attn_ln): FusedLayerNorm(torch.Size([1024]), eps=1e-05, elementwise_affine=True)
        (self_attn_layer_norm): FusedLayerNorm(torch.Size([1024]), eps=1e-05, elementwise_affine=True)
        (encoder_attn): MultiheadAttention(
          (dropout_module): FairseqDropout()
          (k_proj): Linear(in_features=1024, out_features=1024, bias=True)
          (v_proj): Linear(in_features=1024, out_features=1024, bias=True)
          (q_proj): Linear(in_features=1024, out_features=1024, bias=True)
          (out_proj): Linear(in_features=1024, out_features=1024, bias=True)
        )
        (encoder_attn_layer_norm): FusedLayerNorm(torch.Size([1024]), eps=1e-05, elementwise_affine=True)
        (ffn_layernorm): FusedLayerNorm(torch.Size([4096]), eps=1e-05, elementwise_affine=True)
        (moe_layer): MOELayer(
          (gate): Top1Gate(
            (wg): Linear(in_features=1024, out_features=4, bias=False)
          )
          (experts): ModuleList(
            (0): FeedForwardNetwork(
              (activation_dropout_module): FairseqDropout()
              (fc1): Linear(in_features=1024, out_features=4096, bias=True)
              (fc2): Linear(in_features=4096, out_features=1024, bias=True)
              (dropout_module): FairseqDropout()
            )
          )
        )
        (final_layer_norm): FusedLayerNorm(torch.Size([1024]), eps=1e-05, elementwise_affine=True)
        (drop_path): Identity()
      )
      (9): TransformerDecoderLayer(
        (dropout_module): FairseqDropout()
        (self_attn): MultiheadAttention(
          (dropout_module): FairseqDropout()
          (k_proj): Linear(in_features=1024, out_features=1024, bias=True)
          (v_proj): Linear(in_features=1024, out_features=1024, bias=True)
          (q_proj): Linear(in_features=1024, out_features=1024, bias=True)
          (out_proj): Linear(in_features=1024, out_features=1024, bias=True)
        )
        (self_attn_ln): FusedLayerNorm(torch.Size([1024]), eps=1e-05, elementwise_affine=True)
        (cross_attn_ln): FusedLayerNorm(torch.Size([1024]), eps=1e-05, elementwise_affine=True)
        (self_attn_layer_norm): FusedLayerNorm(torch.Size([1024]), eps=1e-05, elementwise_affine=True)
        (encoder_attn): MultiheadAttention(
          (dropout_module): FairseqDropout()
          (k_proj): Linear(in_features=1024, out_features=1024, bias=True)
          (v_proj): Linear(in_features=1024, out_features=1024, bias=True)
          (q_proj): Linear(in_features=1024, out_features=1024, bias=True)
          (out_proj): Linear(in_features=1024, out_features=1024, bias=True)
        )
        (encoder_attn_layer_norm): FusedLayerNorm(torch.Size([1024]), eps=1e-05, elementwise_affine=True)
        (ffn_layernorm): FusedLayerNorm(torch.Size([4096]), eps=1e-05, elementwise_affine=True)
        (moe_layer): MOELayer(
          (gate): Top1Gate(
            (wg): Linear(in_features=1024, out_features=4, bias=False)
          )
          (experts): ModuleList(
            (0): FeedForwardNetwork(
              (activation_dropout_module): FairseqDropout()
              (fc1): Linear(in_features=1024, out_features=4096, bias=True)
              (fc2): Linear(in_features=4096, out_features=1024, bias=True)
              (dropout_module): FairseqDropout()
            )
          )
        )
        (final_layer_norm): FusedLayerNorm(torch.Size([1024]), eps=1e-05, elementwise_affine=True)
        (drop_path): Identity()
      )
      (10): TransformerDecoderLayer(
        (dropout_module): FairseqDropout()
        (self_attn): MultiheadAttention(
          (dropout_module): FairseqDropout()
          (k_proj): Linear(in_features=1024, out_features=1024, bias=True)
          (v_proj): Linear(in_features=1024, out_features=1024, bias=True)
          (q_proj): Linear(in_features=1024, out_features=1024, bias=True)
          (out_proj): Linear(in_features=1024, out_features=1024, bias=True)
        )
        (self_attn_ln): FusedLayerNorm(torch.Size([1024]), eps=1e-05, elementwise_affine=True)
        (cross_attn_ln): FusedLayerNorm(torch.Size([1024]), eps=1e-05, elementwise_affine=True)
        (self_attn_layer_norm): FusedLayerNorm(torch.Size([1024]), eps=1e-05, elementwise_affine=True)
        (encoder_attn): MultiheadAttention(
          (dropout_module): FairseqDropout()
          (k_proj): Linear(in_features=1024, out_features=1024, bias=True)
          (v_proj): Linear(in_features=1024, out_features=1024, bias=True)
          (q_proj): Linear(in_features=1024, out_features=1024, bias=True)
          (out_proj): Linear(in_features=1024, out_features=1024, bias=True)
        )
        (encoder_attn_layer_norm): FusedLayerNorm(torch.Size([1024]), eps=1e-05, elementwise_affine=True)
        (ffn_layernorm): FusedLayerNorm(torch.Size([4096]), eps=1e-05, elementwise_affine=True)
        (moe_layer): MOELayer(
          (gate): Top1Gate(
            (wg): Linear(in_features=1024, out_features=4, bias=False)
          )
          (experts): ModuleList(
            (0): FeedForwardNetwork(
              (activation_dropout_module): FairseqDropout()
              (fc1): Linear(in_features=1024, out_features=4096, bias=True)
              (fc2): Linear(in_features=4096, out_features=1024, bias=True)
              (dropout_module): FairseqDropout()
            )
          )
        )
        (final_layer_norm): FusedLayerNorm(torch.Size([1024]), eps=1e-05, elementwise_affine=True)
        (drop_path): Identity()
      )
      (11): TransformerDecoderLayer(
        (dropout_module): FairseqDropout()
        (self_attn): MultiheadAttention(
          (dropout_module): FairseqDropout()
          (k_proj): Linear(in_features=1024, out_features=1024, bias=True)
          (v_proj): Linear(in_features=1024, out_features=1024, bias=True)
          (q_proj): Linear(in_features=1024, out_features=1024, bias=True)
          (out_proj): Linear(in_features=1024, out_features=1024, bias=True)
        )
        (self_attn_ln): FusedLayerNorm(torch.Size([1024]), eps=1e-05, elementwise_affine=True)
        (cross_attn_ln): FusedLayerNorm(torch.Size([1024]), eps=1e-05, elementwise_affine=True)
        (self_attn_layer_norm): FusedLayerNorm(torch.Size([1024]), eps=1e-05, elementwise_affine=True)
        (encoder_attn): MultiheadAttention(
          (dropout_module): FairseqDropout()
          (k_proj): Linear(in_features=1024, out_features=1024, bias=True)
          (v_proj): Linear(in_features=1024, out_features=1024, bias=True)
          (q_proj): Linear(in_features=1024, out_features=1024, bias=True)
          (out_proj): Linear(in_features=1024, out_features=1024, bias=True)
        )
        (encoder_attn_layer_norm): FusedLayerNorm(torch.Size([1024]), eps=1e-05, elementwise_affine=True)
        (ffn_layernorm): FusedLayerNorm(torch.Size([4096]), eps=1e-05, elementwise_affine=True)
        (moe_layer): MOELayer(
          (gate): Top1Gate(
            (wg): Linear(in_features=1024, out_features=4, bias=False)
          )
          (experts): ModuleList(
            (0): FeedForwardNetwork(
              (activation_dropout_module): FairseqDropout()
              (fc1): Linear(in_features=1024, out_features=4096, bias=True)
              (fc2): Linear(in_features=4096, out_features=1024, bias=True)
              (dropout_module): FairseqDropout()
            )
          )
        )
        (final_layer_norm): FusedLayerNorm(torch.Size([1024]), eps=1e-05, elementwise_affine=True)
        (drop_path): Identity()
      )
    )
    (layer_norm): FusedLayerNorm(torch.Size([1024]), eps=1e-05, elementwise_affine=True)
    (output_projection): Linear(in_features=1024, out_features=59457, bias=False)
    (token_rel_pos_table_list): ModuleList(
      (0): Embedding(511, 16)
      (1): Embedding(511, 16)
      (2): Embedding(511, 16)
      (3): Embedding(511, 16)
      (4): Embedding(511, 16)
      (5): Embedding(511, 16)
      (6): Embedding(511, 16)
      (7): Embedding(511, 16)
      (8): Embedding(511, 16)
      (9): Embedding(511, 16)
      (10): Embedding(511, 16)
      (11): Embedding(511, 16)
    )
    (image_rel_pos_table_list): ModuleList(
      (0): Embedding(6892, 16)
      (1): Embedding(6892, 16)
      (2): Embedding(6892, 16)
      (3): Embedding(6892, 16)
      (4): Embedding(6892, 16)
      (5): Embedding(6892, 16)
      (6): Embedding(6892, 16)
      (7): Embedding(6892, 16)
      (8): Embedding(6892, 16)
      (9): Embedding(6892, 16)
      (10): Embedding(6892, 16)
      (11): Embedding(6892, 16)
    )
  )
  (classification_heads): ModuleDict()
)
2022-05-06 14:54:29 - train.py[line:120] - INFO: task: QQPTask
2022-05-06 14:54:29 - train.py[line:121] - INFO: model: OFAModel
2022-05-06 14:54:29 - train.py[line:122] - INFO: criterion: AdjustLabelSmoothedCrossEntropyCriterion
2022-05-06 14:54:29 - train.py[line:123] - INFO: num. shared model params: 271,625,984 (num. trained: 271,625,984)
…
